src/Testing/best_model.pth (torch, 9314 bytes, 9 tensors)

rnn.weight_ih_l0 f4 [20, 7]
00000000: 4ee9 c0bd d80c 51bd 0fd9 9ebd f14a 383e
00000010: a3a8 d5bd 16f6 e1bd dbac 38be 4012 30be
00000020: 0b39 1e3d 1d0c 76bd 0e84 bc3d 128c d13c
00000030: eb5b 903c 18a3 45be 781c 77be 45b3 67be
00000040: fafb 8f3d bed6 173c 9ae1 a53d e1ee 693d
00000050: 11b7 f23c 134c 803e 8fad ffbd 2fb3 053d
00000060: 8cba 643e ec8d 033e 660f c13d 3acb 373e
00000070: b692 4dbd 7856 12be 8c82 383e 741e 76bc
00000080: 8da5 403e eee3 41bd 73a7 313d 2e73 23bb
00000090: ea60 2dbe 1a48 1cbe 3021 833d fcd8 4bbe
000000a0: 1bbe 3abc 00f8 29be f0db 793e d3ce 4c3c
000000b0: 2994 2ebd a1c2 88bd d861 7d3d 19cf bdbc
000000c0: 853c ff3d f076 d73d 6136 a73d afbf 0e3e
000000d0: 7efe 0bbe aec0 a2bc d60b 37be 900d 93bc
000000e0: 657a 51be e139 4abe 9c2e f1bd c088 9dbe
000000f0: d4cf abbc 9114 2fbe 6580 1cbd b027 74be
00000100: 5654 82be 1436 313d 3fe9 77be b860 07be
00000110: ee34 953d 0580 05bd 3a50 fabd bbff 7a3d
00000120: 23b8 81bc 0c03 273c c458 65bd e5b7 55be
00000130: fbcb 9abd a22a 6cbe 0526 3cbd 7229 05bc
00000140: 108f 65bd 529e 363e 635f 5ebd 54e8 c63c
00000150: 5e70 c8bb b635 c03b 3224 85bd 7fdc d93d
00000160: 5872 11be 0436 643e 8df9 883d 8f20 1abe
00000170: 888b e8bd 25bb 89bd 4ee4 563c 2b92 ba3c
00000180: b067 1fbe 9ed8 f73d f372 cf3c 2f49 9bbd
00000190: 4833 dd3d 6a55 60bd c06f babd bade 403d
000001a0: 7063 e63c e80a 723e 29b5 d93d b028 233e
000001b0: 7420 813e 95dd f33c ac86 f83c 049a 123e
000001c0: 9cdd a53c 1ffb c13c 0098 963d a210 273e
000001d0: d877 023e 6016 2e3e 0fc0 9bbd 0163 d63c
000001e0: 306c 423e 5d39 22bc 5550 133c 40dd 813d
000001f0: f9f1 963d 4c17 893d acee b6bd 091e 203e
00000200: 655d fd3d 9983 8fbd 0f6e 10be 302a 073e
00000210: 178b 23be b83d 5ebd 1e20 013d 6f3f 103e
00000220: df82 42bd 6da8 a4bc fcb2 99bd f836 12bc
-0.09419499 -0.05103764 -0.077562444 0.17997338 -0.104325555 -0.11033265 -0.18034689 -0.17194462
0.03862862 -0.060070146 0.09204875 0.025579486 0.017621955 -0.19300497 -0.24131954 -0.2262698
0.070304826 0.009267507 0.08099671 0.05711258 0.029628308 0.2505804 -0.124842755 0.032641586
0.22336787 0.12847108 0.09426765 0.17948619 -0.050188743 -0.14290798 0.1801855 -0.015021909
0.18813153 -0.04733651 0.043372583 -0.0024940479 -0.16931501 -0.1526188 0.064028144 -0.19906992
-0.011397864 -0.1659851 0.24400306 0.012500483 -0.042621765 -0.066777475 0.06186089 -0.02317004
0.12462715 0.105207324 0.08164669 0.13940309 -0.136713 -0.019867267 -0.17875609 -0.017950803
-0.20456846 -0.19748642 -0.11776468 -0.30768394 -0.020973124 -0.17097689 -0.038208384 -0.23843265
-0.25454968 0.043264464 -0.2421007 -0.13220489 0.07285486 -0.032592792 -0.12222333 0.06127904
-0.015834874 0.0101935975 -0.055992857 -0.20870931 -0.075584374 -0.23063138 -0.045934696 -0.008127557
-0.05604464 0.17833832 -0.054290187 0.024280705 -0.006116911 0.005865778 -0.06501044 0.106377594
-0.14203775 0.2228623 0.06688223 -0.15051483 -0.113547385 -0.06725148 0.0131159555 0.022774776
-0.15566897 0.12101863 0.025323367 -0.07582318 0.10800797 -0.054768957 -0.09103346 0.04708741
0.028123587 0.23636973 0.10630257 0.1593349 0.25220072 0.029768744 0.030337654 0.14316565
0.020247273 0.023679314 0.073532104 0.16314939 0.1274103 0.17000723 -0.07604992 0.026170256
0.18986583 -0.009901372 0.008991321 0.06341028 0.07370371 0.06693897 -0.08932242 0.15636458
0.12371329 -0.07007522 -0.14104484 0.13199687 -0.15971027 -0.05425808 0.03152477 0.14086698
-0.04748809 -0.020099843 -0.07504842 -0.008924238

rnn.weight_hh_l0 f4 [20, 20]
00000000: f569 e03d a4c8 1b3e 724e a13d 4bf6 0b3c
00000010: 7278 ce3c 6c3f f03b 2067 7b3d 21d7 d9bd
00000020: f600 403e 69b7 a8bd 137e 25bd 76f0 1c3b
00000030: d434 7cbd cc88 e73d c928 96bc 373a 83bb
00000040: bbba ed3d 8802 3e3e 6f06 fb3d fcbe 783d
00000050: 7bd7 15be 381a f8bd 3049 e6bc ed0e 803d
00000060: 4b5f 773d 3157 f6ba 0913 ef3d d4a5 0e3e
00000070: 5686 4b3d e8cf 823b 8071 1c3e 5f15 a13c
00000080: e28d dabd 37f9 20be b3fa 0f3e 3a52 613d
00000090: 0de8 3e3e e05c 4fbe 88c6 fcbd 83f1 c13d
000000a0: f606 7ebd b4c0 253e 7ea6 95bd 0f63 26be
000000b0: 8c46 f03d c67e c5bd 443e a9bd 55d2 8cbd
000000c0: 10e7 0bbe 8c29 00be 679d 073d 7957 e2bd
000000d0: 623a b2bc 2b4e 393e 7800 283e dfb3 1abe
000000e0: 1a87 2a3d 2264 583d d2c9 423d 4563 dfbd
000000f0: 71ed cd3c 23ec c0bd 301c 21be dcb4 dcbd
00000100: 4515 a93b 721d 0a3e 2a0e 523d fca0 973c
00000110: 57d3 41bd e608 62bd 966d 1bbd ac49 743c
00000120: cbb5 bc3d f252 9cbd 8184 c7bb 0523 e3bd
00000130: 56fc feb9 6c43 cb3c 1931 363d f485 6dbc
00000140: 4b22 0b3e 8c74 e13d 8ed0 babd f3c2 133e
00000150: 60b5 0c3e 5ea8 aabd 23af 2b3e d15c c33c
00000160: abd7 163d 6497 b4bd e797 e03c 556a 063e
00000170: 98c6 863d 835d 413e 27ab dc3b 2de0 053e
00000180: 2c84 4b3e f63a 77bd 16cb 8abd 11c7 26bd
00000190: 9c68 533e c341 923d 56ff 27be 2ea5 223e
000001a0: 3ffd dfbd 66fb 043e f1da 7c3d a202 bd3d
000001b0: bd26 e6bd a147 26be df3a 483c 259c c33d
000001c0: 6a6e 62be 4a88 033e 2d5e 343e c671 dcbd
000001d0: dc4d b5bd 1cf0 893d 12f6 dfbc 72f5 32be
000001e0: e273 25be 9bba 09be a530 15bd 75c2 c13d
000001f0: ca95 e7bd 5925 3b3e 583c 1f3e 94f0 033e
00000200: b7ea 243e add5 b43d 1b20 59bd fef7 1d3d
00000210: b2e3 52bb 7fa0 e9bd b6ef 593d 07c6 a1bd
00000220: 5664 3cbe 887c abbc e1bc 923d e783 bfbb
00000230: a169 433c 52ff 773d 773d cc3d 467b b73c
00000240: 5950 d23d 83fa f63d 47d0 833d db95 d3bd
00000250: 1f1a 17be 2a71 8abd 6489 ed3d 0083 9c3d
00000260: 1cb0 7dbd d992 cb3c 8229 ffbd 93b8 e23c
00000270: 6496 0abd c0d3 08be 6737 fd3d ab7d 233d
00000280: a252 213d 63a4 2f3c 35d0 083e f52e a83c
00000290: f8d0 adbc 0973 afbd b1e1 233d 85ca 7c3d
000002a0: 9693 2bbe ae09 a6bc ae71 123a 6e9b 6aba
000002b0: 9639 4b3d 6714 703c dda5 b03b 41de 0bbd
000002c0: c995 96bd aa36 cdbd 1585 a63a 080a 5f3d
000002d0: 4e21 88b9 deaa 94bc ebcb 2cbd 7600 cebc
000002e0: d4aa 273e 8ca7 81bd f6ef 40bd aa63 8a3d
000002f0: a606 e93c f605 65bd 508d 003e 6969 1a3e
00000300: 2919 11be 0e00 103e db6c e33d 5df2 d63d
00000310: 04c8 5fbd dd2f 1cbd 4d2c 6ebc 1767 1cbc
00000320: deac 81bc 0980 acbd d1ae d2bd aac7 fc3d
00000330: 1b07 12be ced7 72bd 492c 2dbe 58b6 2c3d
00000340: f76e 093c 55f3 82bd 5b71 8bbd d46a 1abe
00000350: 6d26 17be 7ce9 2e3d 6e8e 6b3c 8373 82bc
00000360: b6bc 0f3d d78d 58bd 4a7a efbd d50f 3abc
00000370: 4d43 ca3d 7487 fd3d bf9c 5abe fd30 263e
00000380: 9c89 053e fe26 513d f54f 0dbe 55dd 5d3d
00000390: acf3 0bbe 8a80 e3ba 2f63 203e f6b0 583d
000003a0: f717 01bd ae50 0d3e ce9c 0d3e c30b 9fbd
000003b0: df73 253d 2485 b23d ae49 e33d 3255 dcbc
000003c0: 3df0 8b3c 0884 153e 2bc8 2dbe 7b67 02be
000003d0: 5230 d23d 5e8f f7bd 7ab4 403e a5b8 20bd
000003e0: f669 18be f912 8bbb 7555 40be d56d d13d
000003f0: 26d6 a3bd 11fc a83d b260 97bd bda5 103e
0.1095771 0.15213257 0.078762904 0.008542608 0.025203917 0.007331779 0.061377645 -0.10636736
0.18750367 -0.08238108 -0.040403437 0.0023947037 -0.06157382 0.11305389 -0.018329995 -0.0040047425
0.11607882 0.18555653 0.122570865 0.060729012 -0.1463298 -0.12114376 -0.02811107 0.06252847
0.060393613 -0.0018794296 0.116735525 0.13930446 0.04968866 0.0039920695 0.15277672 0.01966351
-0.10671593 -0.15720068 0.14060478 0.055010058 0.18643208 -0.20250273 -0.12342554 0.09469893
-0.062018357 0.16186792 -0.073071465 -0.16248725 0.11732206 -0.09643321 -0.08263829 -0.06876055
-0.13662362 -0.12515849 0.033109095 -0.1105184 -0.021756355 0.18096225 0.16406429 -0.15107678
0.04163275 0.05282987 0.047555752 -0.10907606 0.025137635 -0.094200395 -0.15733409 -0.10776684
0.005160006 0.13487795 0.05128304 0.01850938 -0.04732069 -0.055184267 -0.037946306 0.014910143
0.09214362 -0.07633008 -0.0060887937 -0.11090664 -0.0004863466 0.024812423 0.044480417 -0.014497269
0.135873 0.11008558 -0.0912181 0.14429836 0.13741064 -0.08332895 0.16766028 0.02384797
0.03682677 -0.08817938 0.027416183 0.131265 0.065808475 0.18883328 0.00673427 0.13073798
0.19874638 -0.060358964 -0.06777017 -0.04071719 0.20645374 0.07141449 -0.16405997 0.15883324
-0.10936975 0.12986526 0.061732236 0.09229018 -0.112378575 -0.16238262 0.012221067 0.095512666
-0.22112432 0.12844959 0.1761405 -0.10763888 -0.08852741 0.0673525 -0.027339015 -0.17476442
-0.16157487 -0.1345009 -0.036423344 0.09460918 -0.11307867 0.18275966 0.15550363 0.12884742
0.16105162 0.08829818 -0.053009134 0.038566582 -0.0032179174 -0.11407565 0.05320712 -0.07899099
-0.1839765 -0.020933405 0.07164932 -0.0058445814 0.011927039 0.060546227 0.09972661 0.022397649
0.10269231 0.120595 0.0643621 -0.10331317 -0.14756058 -0.067598656 0.11598471 0.07642174
-0.06193553 0.024850296 -0.12459089 0.027675902 -0.03383483 -0.13362026 0.12364083 0.03991477
0.039385445 0.010720345 0.13360675 0.020530203 -0.021217808 -0.08566863 0.040010158 0.061716575
-0.16755518 -0.020268288 0.00055863976 -0.00089495524 0.049615465 0.014653302 0.005390866 -0.034147505
-0.07352788 -0.10020192 0.0012704456 0.054452926 -0.00025964755 -0.018147882 -0.04218666 -0.025146704
0.1637376 -0.06330785 -0.047103845 0.06757291 0.028445553 -0.055913888 0.12553906 0.15079273
-0.14169754 0.14062521 0.11104747 0.10495446 -0.05463411 -0.038131583 -0.014536929 -0.009546063
-0.0158295 -0.08422858 -0.1028725 0.123427704 -0.14260523 -0.05928784 -0.16911425 0.042166084
0.0083882725 -0.06394068 -0.0680873 -0.15079814 -0.14760752 0.042703137 0.01437722 -0.01592422
0.03509208 -0.052869644 -0.11693247 -0.011356314 0.09876118 0.12379351 -0.21348856 0.16229625
0.13040775 0.051062576 -0.13800032 0.054166157 -0.13667172 -0.0017357033 0.15662836 0.052903138
-0.031516995 0.13800308 0.13829347 -0.07765915 0.040393706 0.08716801 0.11098038 -0.026896093
0.017082328 0.14601147 -0.1697089 -0.12734787 0.102631226 -0.12087892 0.18818846 -0.03923859
-0.14884171 -0.004244205 -0.187826 0.10226027 -0.0799983 0.08251203 -0.0739149 0.14125724

rnn.bias_ih_l0 f4 [20]
00000000: 0316 c03d 0e79 7a3d 2dc0 9c3d 1156 313d
00000010: 4a2b 293e e6a9 993d 5361 413e 38e6 e0bc
00000020: 44bc d6bd 2b5b 193c 37ad 3b3e 7185 35bb
00000030: f7fa 15bd 431d 5fbd 3806 d2bd d018 89bd
00000040: 47a5 f7bd ace2 e3bd e193 c0bd 99a5 e7bb
0.093791984 0.061150603 0.07653842 0.04329497 0.1652042 0.07503109 0.18884782 -0.027453527
-0.104851276 0.009360115 0.18327795 -0.0027697945 -0.03661629 -0.054471266 -0.102550924 -0.06694186
-0.12092071 -0.111272186 -0.09403206 -0.0070693013

rnn.bias_hh_l0 f4 [20]
00000000: c82b 9cbd a941 433e 799f 9cbc ec42 bbbd
00000010: dabf 643c 4b33 f53d b7c6 1c3c 7bf6 08be
00000020: 538d f6bd da0e 173d f7b1 1fbe 1805 ca3d
00000030: 03fa 5a3e 5865 66be 97b5 13be 5c85 523e
00000040: 0354 90bd 3c89 3e3e af6f c23c 8242 2fbe
-0.07625538 0.19068016 -0.019119011 -0.09143624 0.013961757 0.11972674 0.009568862 -0.13375275
-0.12038674 0.036879398 -0.15595232 0.09864253 0.21384434 -0.22499597 -0.1442474 0.20558685
-0.07047274 0.18607038 0.023734896 -0.17115214

rnn.weight_ih_l1 f4 [20, 20]
00000000: e220 19bd 2e91 54be aa03 42be aa8f 073e
00000010: 3378 7abd 2b0b cc3c 764b 563e 330d ad3d
00000020: 8586 ee3d 993c 0dbc c153 0d3e e131 40be
00000030: 6208 ac3d 63f4 75be 0fd5 e3bd c8c3 203e
00000040: 617d d63d 5e27 f4bd fc97 3fbd 60fd 6bbd
00000050: f607 143e 20a0 fc3c edfe 713d 322c cdbd
00000060: b02a b33d 1196 83bd 2fb2 0ebe de97 783d
00000070: 022a a0bd dd74 2b3d 4715 39bd 19da fabc
00000080: 6180 a3bd 655f 963d a136 913d 384c dbbc
00000090: 6f73 b73d d80d b63c 88f1 24be b202 81bc
000000a0: 8658 293e 3b65 27bc 6339 1e3e 760f 70be
000000b0: a5d0 f3bd 40af 353e c928 68bd da7a d73d
000000c0: 8ac6 ba3d 7885 2f3e 2569 52bd 0fb5 4a3d
000000d0: 4230 87ba 2b0c 783e 2015 223e 02b8 16be
000000e0: b677 d2bd 042e 10be e643 ae3c 84bd 273e
000000f0: d3ec 02be fce6 2cbe 630d 9cbd 2972 15bc
00000100: e2d5 34bd 3fc3 09bd 42e9 453e ff34 f7bc
00000110: 1980 273e fcdb b13c 4d45 27be 75ca c63d
00000120: 82de 833c f613 60be b69c b53d 36f8 0fbe
00000130: c10d b43d 50e4 04be 07ee babd 3c55 acbd
00000140: f18a 333d 2fab 3ebb cf17 e4bc 46fb 083e
00000150: 2e50 8ebd 2d23 cdbd c214 67bc ca56 15bd
00000160: 25e1 4dbe 78f5 84bd 0f44 623a 302d 0dbd
00000170: 56a8 073e 7b87 12be 6406 c53b 491e 503e
00000180: 0373 c63d f32a 6e3d 6aa3 16bd a1e3 6a3c
00000190: c44f 4e3d b361 4cbe 112e f23c a51c f93c
000001a0: e208 d03d 4a89 883c 0875 fdbc 15fc 7bbd
000001b0: f9cf 3d3d a7db 24be 65b9 c1bc a9dc 3cbe
000001c0: 98e5 8abd 1535 793d d3d5 02be 061e 9b3d
000001d0: 7c4f 27bd 3289 623d 2391 babd 989b b83d
000001e0: faaa 1cbe 30a3 34bd 4ed0 83bd d689 203d
000001f0: 4ad9 f03d 3d14 2ebe feaf 4b3e 5ea0 023d
00000200: 684f 59be 5034 24bd 2cdb 0dbe fc9d f43d
00000210: a4cc 2c3e 6239 2bbb 1541 90bd ffcd e63c
00000220: 45fd 003e 97d3 f4bc 3d77 1abe 532b 653d
00000230: eeb2 1cbe 0465 1d3e a14c 19bd 5cd5 2cbe
00000240: 6a49 233e 0da3 443e 83e7 8bbd b1c4 2dbd
00000250: 2c5f 813e ecce 623e d536 153e 552f 2dbe
00000260: 0c3f 46bd b3e7 303c cd2c 563e b61c 4bbe
00000270: 451b 53bd 82fe aabd 3e11 ebbd 9d95 163d
00000280: 617d 963d d94e 0cbd e963 bfbc 8a7a e53d
00000290: 58d3 ddbc 97d6 d2bd cc1a dbbd 6ece ab3d
000002a0: bf11 04be b076 f93d 0104 06be c6d6 2f3d
000002b0: 43fc bcbd 9a80 c8bd 9bce 153e bdef 093c
000002c0: 1d57 95bd 4d0e 0cbe 91a0 a2bd fbce e33d
000002d0: c515 43bc a367 d53d c00e e03a 9bbf 943d
000002e0: a399 03be faed 00be 6b6d 593d 9a68 38bd
000002f0: 9297 223e 7a33 c33d 48ea 8a3d 6c97 2dbe
00000300: ef16 0b3d e55b e33d 7f0b 3a3e e36f d93c
00000310: 9f5c a53c 700b e43d a866 febc a9ce 16be
00000320: 3578 f7bd edc4 5e3d e986 8bbc 66e8 ebbd
00000330: dc3f d9bd 8547 11be 55b2 88bd 9e00 463d
00000340: 88b6 023e 65c5 443e d7cb 6fbc 7e09 c1bd
00000350: 95cf 36be 8855 fb3d cf6a 133e 52a7 08be
00000360: 957c f339 75bf 3a3d ed38 80bc ed49 963d
00000370: 2521 bbbd 8d7e a0bc a0c6 c7bd 26b9 2a3e
00000380: bcfd e73d 62f4 e93d e210 aebd f70b 71bd
00000390: ea44 03be 535a 07be 35f9 be3c 6eed 1d3d
000003a0: 1712 ba3d 0e7d e9bd 37a4 593c f924 303e
000003b0: 0d0d d93d 44f1 d7bc 0efe 01bd 77cd cabc
000003c0: 9943 02be 689a e3bd ddf6 2ebb 4089 5f3d
000003d0: dd44 dabd 797f 0f3d 6390 9bbc 89a8 5fbc
000003e0: 7115 afbd f509 4dbd e559 ffbc 5853 9cbb
000003f0: 4640 ab3a 8a3b 953d b445 2e3d fe6a 9d3d
-0.037384875 -0.20758507 -0.1894671 0.13238397 -0.061149787 0.024907669 0.20927224 0.08449783
0.11646751 -0.008620405 0.13801481 -0.18769027 0.084000364 -0.24019007 -0.11124622 0.15699685
0.10473133 -0.11921571 -0.046775803 -0.057614684 0.14456162 0.030838072 0.059081007 -0.10018195
0.08748376 -0.06425107 -0.13935159 0.060691707 -0.07820512 0.041859496 -0.045186307 -0.030621575
-0.07983471 0.07342414 0.07090498 -0.026769742 0.08957564 0.022223398 -0.16107762 -0.015748356
0.16537675 -0.010217006 0.15451579 -0.23443398 -0.1190503 0.17742634 -0.05667952 0.10521479
0.091198996 0.17140758 -0.051369805 0.049489077 -0.0010314065 0.24223392 0.15828371 -0.14718631
-0.10276739 -0.14080054 0.02127261 0.16380888 -0.12785654 -0.16884989 -0.07619741 -0.009121456
-0.044149287 -0.033633467 0.19327262 -0.030176638 0.16357459 0.021711342 -0.1633503 0.09706584
0.01609731 -0.21882614 0.08867781 -0.14059529 0.08791686 -0.1297772 -0.09127431 -0.08414695
0.043833677 -0.0029093733 -0.027843384 0.13377103 -0.06948887 -0.10016475 -0.01410407 -0.03645972
-0.20105417 -0.06492132 0.00086313573 -0.034466922 0.13247809 -0.14309494 0.0060127247 0.20324053
0.096899055 0.05814643 -0.036776938 0.0143364975 0.05036904 -0.19959144 0.029562982 0.030409167
0.10157944 0.016667027 -0.030939594 -0.0615197 0.046340916 -0.16099416 -0.023647973 -0.1844355
-0.06782073 0.06084164 -0.1277688 0.07574086 -0.040847287 0.05530662 -0.09109714 0.09014052
-0.15299597 -0.04410094 -0.06436215 0.03919395 0.117601946 -0.16999908 0.19891354 0.03189122
-0.21221697 -0.04008895 -0.13853139 0.11944196 0.16874939 -0.0026126732 -0.070436634 0.028174398
0.12596615 -0.02988605 -0.15084548 0.05594952 -0.15302631 0.15370566 -0.037426595 -0.16878265
0.15945974 0.19202824 -0.06831267 -0.042423908 0.25267923 0.22149247 0.14571698 -0.16912587
-0.04839997 0.010797429 0.20915528 -0.19835171 -0.051539678 -0.08349325 -0.11477898 0.036763776
0.07348133 -0.034254882 -0.02336307 0.11205013 -0.027078316 -0.10294836 -0.106984705 0.08388983
-0.12897395 0.12180841 -0.13087465 0.042929433 -0.092278026 -0.09790154 0.14629595 0.0084189745
-0.07292006 -0.1367733 -0.07940782 0.11123463 -0.011907046 0.10420158 0.001709424 0.07263108
-0.12851577 -0.12590781 0.053082865 -0.04502163 0.15878132 0.09531303 0.06782967 -0.16952294
0.033957418 0.11101512 0.18168448 0.02654261 0.020185767 0.11134994 -0.03105481 -0.14727272
-0.120834745 0.05438702 -0.017032104 -0.11518936 -0.10607883 -0.14187439 -0.06674639 0.048340432
0.12764943 0.19215925 -0.014636002 -0.094256386 -0.17852624 0.12272173 0.14396213 -0.13345078
0.00046441393 0.045592744 -0.015652144 0.07338319 -0.09137181 -0.019591594 -0.097546816 0.16672191
0.11327693 0.114235654 -0.08499314 -0.0588493 -0.12819257 -0.1321805 0.02331219 0.03855651
0.090854816 -0.114008054 0.013283781 0.17201604 0.10598192 -0.026360162 -0.031736426 -0.024756176
-0.12721099 -0.11113435 -0.0026697435 0.05457425 -0.10657666 0.035033677 -0.018989747 -0.013651022
-0.085490115 -0.050058324 -0.031170795 -0.0047706775 0.001306542 0.07286747 0.042546943 0.07686423

rnn.weight_hh_l1 f4 [20, 20]
00000000: e7e1 bf3d f244 e8bd 49ca 393e 477e e63c
00000010: 84e7 da3c 57d8 393e 0bd5 463e 859c 773c
00000020: ba77 1d3e 94ac d6bb c75a 47be 4453 00be
00000030: 2e51 b5bd b9a1 193d 3528 3dbd a041 48be
00000040: c2cb 5a3c 0c1f ff3d 3266 2cbc 48ea 41be
00000050: bf62 06bd 9434 7c3d baee 0c3e 6eb3 2c3e
00000060: 5b1f d23d 4465 2b3e adf2 1bbd b46f f8bd
00000070: 2c17 573d 472d d6bc 6040 bbbd 3fbe b63c
00000080: 0b75 aebd 3a98 803d 25f0 54bd 87ed a5bd
00000090: ee59 4ebe 8fb6 5f3e 4ab9 8c3d ec25 08be
000000a0: 3079 e63d ffea 073e aa71 22be b280 cbbc
000000b0: deed b6bb f5cf a5bb 9758 1b3e ebc6 433e
000000c0: 4cbc 21be 30e4 f1bd 29e6 f23d 00ae 2a3e
000000d0: 0b0f 30be fa98 2ebe 6519 bf3d 8229 083d
000000e0: f292 3f3e 0827 253e 23f2 26be 4702 6a3d
000000f0: 0471 e63d 72b5 703d 011a 39be 298c 193d
00000100: dd65 893d cbf7 a2bd a938 253e ebc1 2a3e
00000110: b601 d33d a0f9 e2bd 4218 80bc 9624 1abe
00000120: f112 c0bd f5e7 e2bd 8f82 a8bc 2016 0c3d
00000130: c7fa 0cbe b004 4e3e 0630 eebd e189 8f3d
00000140: 74df 37bd 498f 17bd 5026 24bc af85 a13d
00000150: af2b c4bd 6064 3bbc c1d7 273c 4e96 e03d
00000160: 7fd0 a0bd c018 48bc 48b4 b53c a54b 0c3d
00000170: 04e0 a93d 04be 0d3a b0e4 9b3b 938a dd3d
00000180: b9e6 10be ba2d 8c3d b487 163d aef6 a8bd
00000190: cf89 573e 5994 6abd 3f5d 103e e1c7 7ebd
000001a0: ff07 cd3c 9805 d43a 39b8 debb c939 4cbd
000001b0: 7b25 ab3d 2326 0d3e 8f5f 43bd ab1d a83d
000001c0: 468e b83d 074f f4bd e998 0d3d 7d42 04bd
000001d0: 1b75 1dbe 46aa ddbd 0018 063e bc09 17be
000001e0: e1a9 babb 31fd 56be 4284 adbd 3b35 d83d
000001f0: 76c2 e9bc 111c 34be 4fb7 333e d4d0 82bd
00000200: c9ff af3d 3247 b1bd e526 41bd 9aa0 973d
00000210: dcea 01be f82f d2bd 3516 f33c 0d87 1abe
00000220: 0857 e03d 01c7 de3d 6bba 51bd 864d b1bc
00000230: 100b 4abe 0813 b53d e928 b4bd cd95 6a3d
00000240: 8aeb 383e 1885 46bd d149 053e 90b0 a83d
00000250: 3533 d4bd d0fa c1bd 1eb7 e4bd 753f 473e
00000260: 831a f0bc c2a0 ef3d 7041 083e f979 c43d
00000270: e92b f33d 7b54 d73c f28f f03d 1190 633e
00000280: a028 c2bd aa19 16bc f511 28bd 8927 e4bd
00000290: ad1f 873d 0b59 2ebe 4412 273c 1e70 68bd
000002a0: 3f4c f0bd 49e1 c83d 5b3a 683d 57c0 c33d
000002b0: 9690 92bd 032d 05bb a7c0 9b3d 084b a0bd
000002c0: e6a8 ce3a c337 ac3d 1863 e7bd 1b8c 66bd
000002d0: 26c6 3b3e 9a8a d1bd c65e 4d3c 2195 d83d
000002e0: 9edb 243d 75a1 27be 7bf8 833c f10f 95bc
000002f0: d986 833d 5a0a 083e 8972 ff3d 2e9a 943d
00000300: 6df4 1d3c ea1a 06bd acf5 d63c bc42 0fbd
00000310: 219f e7bc 28f0 f33c 3c29 113d a311 0f3e
00000320: 3a13 2abd d960 8cbd 425e 93bc 015a b2bd
00000330: 68be fd3c a9fc 513d 4a71 adbd e995 123c
00000340: 43b5 aabd c377 2abe ffd8 86bd cad2 443d
00000350: 9caa 723d d4d1 85bb ffbd 60bc 077e f9bd
00000360: cb24 86bd fd5c b4bc aab4 a9bc 3fbc 52bd
00000370: bf52 fd3c 76c9 9cbd 6815 41bd 63bb 64bd
00000380: 5bd5 a73c d32e d43c dd8e c83d 73af c4bc
00000390: 8ebc be3c 4207 873c 69ba 9e3d 66f3 4fbd
000003a0: a5aa c43c f50b 62bb 9c64 983c 2c04 16bb
000003b0: 4ca0 1ebe 3b62 8fbc b9d0 cc3d a5b2 573d
000003c0: 6c49 403d 07a6 493d cd63 22be 0973 f5bb
000003d0: 2d3c abbd c48d 18be b946 c6bc e76c c8bc
000003e0: bc52 053d dd0e 08bd 65bc c1bc 9b5d 77bd
000003f0: 16a9 063e b52b 523c cdad 8ebd 5908 d1bd
0.09369259 -0.11341275 0.18143572 0.028136386 0.026721723 0.18148933 0.19417207 0.015113001
0.15377703 -0.0065513346 -0.19468223 -0.12531763 -0.088533744 0.037507746 -0.046180923 -0.19556284
0.013354244 0.124570936 -0.010522412 -0.18937027 -0.032809015 0.06157358 0.13762942 0.16865322
0.10259887 0.16737849 -0.03807323 -0.12130681 0.052512333 -0.026144637 -0.09143138 0.022307513
-0.08518418 0.06279035 -0.051986832 -0.08101945 -0.20151493 0.21846984 0.068712786 -0.13295716
0.112535834 0.13273238 -0.15863672 -0.02484164 -0.005582555 -0.005060191 0.15170513 0.1911885
-0.15794486 -0.118111014 0.11860306 0.16667938 -0.17193238 -0.17050543 0.093310155 0.03324271
0.18708399 0.1612817 -0.16303305 0.057131078 0.11252025 0.05876679 -0.18076326 0.037487183
0.06708882 -0.07957419 0.16134895 0.16675536 0.10303061 -0.110827684 -0.015636567 -0.15053019
-0.09378613 -0.110793985 -0.020570068 0.034200788 -0.13767539 0.20118976 -0.116302535 0.0700872
-0.044890836 -0.03700188 -0.0100189 0.07886826 -0.095786445 -0.0114375055 0.010244311 0.10966168
-0.078522675 -0.012212932 0.022180691 0.034251828 0.08294681 0.00054070377 0.0047574863 0.108174466
-0.14150514 0.06844659 0.03675051 -0.082501754 0.21048664 -0.05727038 0.1409807 -0.062202338
0.025028227 0.0016175983 -0.0067968634 -0.049859796 0.08356758 0.13784079 -0.047698554 0.08208784
0.090115115 -0.11929136 0.034569655 -0.03228997 -0.15376703 -0.10823493 0.13095093 -0.14749807
-0.0056965207 -0.20995022 -0.08472492 0.10557028 -0.028535109 -0.17588831 0.17550395 -0.06387487
0.08593709 -0.086561576 -0.047156233 0.07403679 -0.12687248 -0.102630556 0.029673675 -0.1509058
0.109541 0.10877801 -0.051203173 -0.021643411 -0.19730783 0.088415205 -0.087968655 0.057271767
0.18058601 -0.04846677 0.1301644 0.082368016 -0.103613295 -0.09471667 -0.11167739 0.194578
-0.029309517 0.11700584 0.13306212 0.09593577 0.118736096 0.0262854 0.117462054 0.22222926
-0.09480405 -0.009161392 -0.04103275 -0.11140353 0.065978386 -0.17026155 0.010197226 -0.05674755
-0.11733293 0.09808595 0.056696277 0.0955817 -0.07156484 -0.0020321019 0.07605105 -0.07826811
0.0015766888 0.08409073 -0.112981975 -0.05628596 0.18337306 -0.10231514 0.012534803 0.10575319
0.040248506 -0.16370185 0.016109696 -0.018196078 0.064222045 0.13285199 0.12473018 0.0725597
0.009640795 -0.03274051 0.026240192 -0.034975752 -0.02827412 0.029777601 0.035439715 0.13971572
-0.041522242 -0.0685441 -0.017989282 -0.08708573 0.030974582 0.051266346 -0.08468874 0.008946874
-0.08335354 -0.16647248 -0.065843575 0.048052587 0.059244737 -0.0040838514 -0.013717174 -0.12182241
-0.065499865 -0.022016997 -0.02071603 -0.051449057 0.030923245 -0.07655613 -0.047139555 -0.05584277
0.020487478 0.025901234 0.09792874 -0.024009442 0.02328327 0.016482953 0.07750399 -0.050769232
0.02400715 -0.003449199 0.018602662 -0.002289067 -0.15490836 -0.017502895 0.10000748 0.052660603
0.04694502 0.0492306 -0.15858383 -0.00749052 -0.08361087 -0.1489783 -0.024203645 -0.024465991
0.032549605 -0.0332173 -0.023649404 -0.060392004 0.13150439 0.012827803 -0.069667436 -0.1020667

rnn.bias_ih_l1 f4 [20]
00000000: 18c6 163d 3af0 2dbe cf77 ad3d 7ee2 543e
00000010: 0c06 5b3d 41d0 293e 6dba e33c c8b0 e23c
00000020: 2144 293e 11a7 283d 865a 25be 6f60 073e
00000030: 8462 f43c 80af 013e 814b cbbd 7ed9 0e3e
00000040: bc9d 54bb 3455 b63d 4b99 e93d b5a6 5abe
0.03681001 -0.1698617 0.08470117 0.20789525 0.053472564 0.16583349 0.027798856 0.027672186
0.16529895 0.041174952 -0.16147813 0.1322038 0.029832132 0.12664604 -0.099265106 0.13950154
-0.003244265 0.0890297 0.114061914 -0.21352656

rnn.bias_hh_l1 f4 [20]
00000000: d293 123e 98bf 673c dcaa 603e e64c 1dbe
00000010: 0561 6c3d 0a6c 753d fc7e 1dbd 8fac eabd
00000020: a3f6 9dbd ca4a a3bd 19cc 10be 02e3 76bd
00000030: 0818 11be 0b10 d6bd d7ea 093e 6ab4 4ebe
00000040: d3f5 013e ad58 e5bd f6ff 69be c47c 293d
0.14314201 0.014144801 0.21940178 -0.15361366 0.057709713 0.059917487 -0.03845118 -0.11458694
-0.07713058 -0.07973249 -0.14140357 -0.060275085 -0.14169323 -0.10452279 0.1346849 -0.2018601
0.12691431 -0.11198554 -0.22851548 0.04137875

fc.weight f4 [1, 20]
00000000: 3dec cb3d 1c71 073d 4a8a 86be 00be 9e3d
00000010: 3eff 063e f882 093e ca54 fb3d 0762 8dbe
00000020: 2d90 26bd 3571 82bc 1ca0 fcbd 3e0c f03d
00000030: 37f5 863c 64ca 25be 283b cebd 4c0e 253e
00000040: 3d93 bdbd 7e6c 0b3e 880d 853e 8a3b 33be
0.09957168 0.033066854 -0.2627738 0.077510834 0.13183305 0.13428867 0.122720316 -0.2761385
-0.04066484 -0.015923122 -0.12335226 0.11721085 0.01647435 -0.16190487 -0.10069877 0.16118735
-0.09256599 0.13615605 0.25986886 -0.17503181
